notebooks/bert/pytorch_model.bin (torch, 397554 bytes, 44 tensors)

bert.embeddings.word_embeddings.weight f4 [500, 50]
00000000: 0000 0000 0000 0000 0000 0000 0000 0000
00000010: 0000 0000 0000 0000 0000 0000 0000 0000
00000020: 0000 0000 0000 0000 0000 0000 0000 0000
00000030: 0000 0000 0000 0000 0000 0000 0000 0000
00000040: 0000 0000 0000 0000 0000 0000 0000 0000
00000050: 0000 0000 0000 0000 0000 0000 0000 0000
00000060: 0000 0000 0000 0000 0000 0000 0000 0000
00000070: 0000 0000 0000 0000 0000 0000 0000 0000
00000080: 0000 0000 0000 0000 0000 0000 0000 0000
00000090: 0000 0000 0000 0000 0000 0000 0000 0000
000000a0: 0000 0000 0000 0000 0000 0000 0000 0000
000000b0: 0000 0000 0000 0000 0000 0000 0000 0000
000000c0: 0000 0000 0000 0000 fde6 01bc f331 803b
000000d0: cb3a c73c 8314 083c 90d1 94bc 183c aabc
000000e0: b603 9d3c 5bb2 913c 9cc1 ecbc 9cef e5ba
000000f0: 9ec0 b33b 6254 2e3b 242e 463c f298 343b
00000100: 7b31 d43c 0ba4 45bb 7808 653c d4b1 88bc
00000110: 7984 48bb 1dbd d2bc 0ce2 a1bb 0722 7cbc
00000120: 2d49 08bc 2606 9aba d0b2 ddbc 7d2c c8bb
00000130: 8f7f 5fbc 5e80 533c de6f ed3c 1623 8e3c
00000140: 7547 d7bc fb0d 7b3c f83c aebb 7eb4 02bd
00000150: 3208 10bc 78c8 10bd 7d05 433b f2df 15bc
00000160: d0c6 e83c 12de f4bc 9d54 a03b fcaa 9ebc
00000170: 474d d73b 9b8b 713a 1d9c 46bb c59c 7bbb
00000180: 7bca 13bd 36b0 adbb 7b4f 863c 7565 cebb
00000190: d3b5 3abc 508d 3d3d 2e60 afbb 050b e539
000001a0: 93f8 c43a 4bea df3a e3d5 9cbc ab57 583c
000001b0: 8ddb 1e3c f1e3 80bb fb22 c0bc fcc1 6c3b
000001c0: 04b2 4d3c d887 9b3b 9841 37bc 1e9f 943c
000001d0: 0eed 253c 6c4f 073d b06d 2abd 0d0f b93b
000001e0: e54f 10bc 934b d83c 27db a73c 807e 783c
000001f0: 60fd a1bc 8e0e 8e3b cca5 f9bb db6d 25bb
00000200: db52 11bc 1317 46bc 35d1 fdbc 70be db3b
00000210: e7b7 a1bb ad10 bdbb ebfe 03bc ec38 da3c
00000220: 693c 24bc f627 22bd f3cd 06bd e534 a13c
00000230: 697f fc3b ef5b d3bc 7ad4 93bc ef5c b5bc
00000240: f6b2 0bbd f441 8a3c cacc e73c 02bb 09ba
00000250: 5703 fdbc f997 36bc 9cd8 8ebc bdc7 283b
00000260: 8142 baba 5e0f 673b e2d6 3bbb b19c 92bb
00000270: ab87 b33b bb1d bdbb d28a 933c 0558 083c
00000280: 0712 4abc 1d38 3f3c 7768 fb3c b830 063d
00000290: 89a0 d9bb cfa8 be3c 8791 32bb bf1b 883c
000002a0: 1b5e 043c fef2 dd3c c445 1a3d 47be 4dbd
000002b0: 1e60 fbbc a28c e3bb 5b22 e93a e2d1 7abb
000002c0: 8be2 db3c 2c86 efbc cfb4 8c3c b7c5 2bbc
000002d0: 4e62 b93b c024 cabc 43d0 90bc 3297 8abb
000002e0: 4960 d9bb 12d1 883b 3ba4 2bbd 2a48 163d
000002f0: 4065 82bc 42f7 c93c b93f cd3b 292e a53c
00000300: aa20 3bbb 6a9b 6a3c 2575 e03b 9e31 afbc
00000310: dd32 14ba 4ac5 99bc e18b 66bc 8960 3abc
00000320: e227 2bbc 36be 87bb 2ced 0fbc c210 f9b9
00000330: c920 a9bb 46de a2bc 52d4 003d 1b68 073c
00000340: ebc6 b8bb 89a9 09bd fbf6 6e3b 47c5 153d
00000350: d324 193c ec3b 223c 3bff e5ba 607f ca3b
00000360: 5461 9c3a 4494 00bc e274 bdbc 1783 ca3c
00000370: 7d2d 30bc 46f3 64bc eae5 1c3b 2505 30bc
00000380: 40e5 ad3b 5b5c a43c c9d2 dc3b 7ac7 86bc
00000390: 40b5 253c 32be 6dbc b8c6 713c 78e7 20bd
000003a0: b6c7 09ba e96d 20bc c032 b6bb 9ec3 5c3a
000003b0: abc4 07bc 444a 0b3b 5d18 fabb cd21 833a
000003c0: 0cee 653c 862c 00bd ce00 7dbc b82b ddbc
000003d0: 8452 59bc 1971 22bd cd2c 1dbc 3e90 363c
000003e0: 92f7 abb8 4bf1 dabb 4c1b 1d3c af51 093c
000003f0: e239 3c3c eb19 fe3c 142e 19bd b535 0a3c
0.0 0.0 0.0 0.0 0.0 0.0 0.0 0.0
0.0 0.0 0.0 0.0 0.0 0.0 0.0 0.0
0.0 0.0 0.0 0.0 0.0 0.0 0.0 0.0
0.0 0.0 0.0 0.0 0.0 0.0 0.0 0.0
0.0 0.0 0.0 0.0 0.0 0.0 0.0 0.0
0.0 0.0 0.0 0.0 0.0 0.0 0.0 0.0
0.0 0.0 -0.007928607 0.0039122044 0.024320027 0.008305672 -0.018166333 -0.020780608
0.019166809 0.017785242 -0.028900914 -0.0017542723 0.0054856082 0.002660059 0.012095962 0.0027556983
0.0259025 -0.0030157592 0.01397907 -0.016686358 -0.0030596538 -0.025724942 -0.004940277 -0.015388972
-0.008318228 -0.00117511 -0.027062804 -0.006108819 -0.013641252 0.012909023 0.028984006 0.017350715
-0.02627919 0.015323157 -0.0053173266 -0.031910412 -0.008791016 -0.035347432 0.002975791 -0.009147631
0.028415114 -0.029891048 0.004892899 -0.019368641 0.0065704915 0.0009214223 -0.0030305453 -0.0038393002
-0.036081772 -0.005300547 0.016395321 -0.0062987157 -0.011395889 0.046277344 -0.0053520417 0.00043686494
0.0015027694 0.0017083375 -0.019144958 0.013204495 0.0096959 -0.0039334227 -0.02345418 0.0036126366
0.012554649 0.0047464184 -0.011185072 0.01814228 0.010127319 0.033034727 -0.041608512 0.005647546
-0.008808111 0.026403224 0.020490242 0.015166879 -0.019774139 0.004335231 -0.0076186415 -0.002524248
-0.008869852 -0.012090462 -0.030983547 0.0067060515 -0.004935253 -0.00576981 -0.008056383 0.02663847
-0.0100241685 -0.03958889 -0.032911252 0.019678542 0.007705618 -0.025800673 -0.018045653 -0.02213904
-0.034106217 0.016877152 0.028295893 -0.00052540016 -0.030885382 -0.011144632 -0.017437272 0.002575382
-0.0014210494 0.0035256962 -0.0028662016 -0.0044742455 0.0054788194 -0.0057713664 0.01801053 0.008321767
-0.0123334 0.011671093 0.030689461 0.032761306 -0.0066414517 0.023273854 -0.0027247386 0.016614793
0.008079077 0.027093407 0.03766419 -0.05023029 -0.03068548 -0.006944255 0.0017786728 -0.0038272073
0.026841423 -0.029238783 0.01717606 -0.010484151 0.005657471 -0.024675727 -0.017677432 -0.0042294497
-0.0066337925 0.0041753137 -0.04190467 0.036689915 -0.01591742 0.024654035 0.0062637 0.020163612
-0.0028553405 0.01431928 0.006849902 -0.021385964 -0.0005653331 -0.018770833 -0.014071436 -0.011375555
-0.0104465205 -0.004142548 -0.0087845735 -0.00047505467 -0.005161379 -0.019881379 0.031452484 0.008264567
-0.0056389472 -0.033608947 0.003646313 0.03656509 0.0093471585 0.009901982 -0.0017547378 0.006179735
0.0011930862 -0.007847849 -0.023127023 0.024720712 -0.010753033 -0.0139740165 0.002394075 -0.010743414
0.0053068697 0.02006357 0.0067389947 -0.01645254 0.010114014 -0.014510678 0.014756851 -0.039283246
-0.00052558945 -0.00979183 -0.005560249 0.0008421483 -0.008286635 0.0021253983 -0.007632299 0.001000458
0.014033806 -0.03129246 -0.015442086 -0.026998386 -0.013264302 -0.03965864 -0.009593201 0.011142788
-8.200029e-05 -0.0066815964 0.009589028 0.008381291 0.01148841 0.031018218 -0.03739746 0.008435656

bert.embeddings.position_embeddings.weight f4 [512, 50]
00000000: 9705 323b 3767 6ebb 548d c13b 24d5 8bbb
00000010: f503 ff3b 0f5b bdbc ecef f13c bb98 a43c
00000020: a01e f8bb 29d0 91bc b768 44bd 1969 ba3c
00000030: c920 3c3c 0f22 94bc 0fa4 8dbb d5c5 bdbc
00000040: b9ac ed3b c6f0 19bc c627 013d d049 1a39
00000050: 0faf 3b3c b686 883c 33b7 c3bc 4cc4 87bc
00000060: b34e 663b 4e8d 4fbc 9e3a 7b3c f276 063d
00000070: 617c 6abd c24b ebbc 0c3d de3c e079 41bc
00000080: e163 b93c 309f b2bc e225 323c c4c6 a9bc
00000090: e504 55ba e36a 9fbc 2385 7a3c 12d1 8a3c
000000a0: 461a adbc c86e 073c ac75 dcbc 59d8 7fbc
000000b0: 74f0 03bc bc84 c73c c237 61bc 8680 883c
000000c0: e513 4b3d 8018 1e3c e31c 203c 5cdf fe3c
000000d0: 3983 8e3b 9dc4 1cbd 7ef2 1f3c 8161 433b
000000e0: 69e4 1bbd 468d 4d3c f2a8 06bd 41e7 4e3c
000000f0: 53ba b8bc b969 91bc d076 a7bc 39c2 bc3c
00000100: cd34 20b9 aa78 0dbc 49c1 303c 3221 b03c
00000110: 57bc 70bc 9d23 103d 2dc0 8cbb ccf8 943c
00000120: cb7c 44bc d203 6dbd ee71 a93a c0eb 023c
00000130: 7ddd d4bb 3996 1b3d 526e 22bc 8b61 e2bb
00000140: 5716 c33b 6dd9 323c 994f 243d 7704 833c
00000150: d399 d0bc eb11 1a3c 783f a6b9 e79f bcbc
00000160: 15e7 c63c d5d0 62bc 5575 6fbc 5eff 96bc
00000170: 3a39 023d 19eb 533c 2f01 803c 4aff 163d
00000180: baba 913c 7b29 ddbb d934 14bd a7dc 14bc
00000190: bdde 173c 4eba 67bb ae0c e2bc c387 faba
000001a0: 126b a33c 37dd 763a 6308 70bc 7bdb d33c
000001b0: 2462 8c3c 76fd 99bc b041 113c 461d f53c
000001c0: 4b90 a3bb 5212 563d 9c7a 16bb 1c41 493d
000001d0: cf23 463c 0592 2fbd 4cee f13a d637 313c
000001e0: 626c c5bc a114 c1bc dec4 babb 89ca e6bc
000001f0: 7409 1abb 3860 86bc 58da 723b d57d 0c3c
00000200: d8b1 0fbd 43f3 12bd 7c04 febb 0901 04bd
00000210: 9811 543c 63c8 6fbc cbfe 49bc 4b74 d63b
00000220: 2ad9 0bbd fc6f d8bb 9e1d 963c 9db3 a23c
00000230: 6fe9 123c 5dfb 03bc e09f cbbc 8142 223b
00000240: 7cb8 e6bc 872f 2bbc 94fd c9bc 824c 1abb
00000250: 6ea2 1b3d 667d 99ba 89da a53c 3359 7dbc
00000260: b3af ebbb 9da1 f0bb 01ac 6d3c 7ef5 b0bc
00000270: 7bbd 8f3b 6900 423d 9723 173d ef9f cd3b
00000280: 6a3e bcbc 427c 983c d3d4 0b3d 4313 8e3b
00000290: c969 67bc b28d a33b 49af 2fbc 90c6 7d3c
000002a0: 7746 363c 8e44 b23c 12cf 933c 7ab4 153c
000002b0: 37f2 8cbb fa5c 90bc 495c ea3b 6283 643b
000002c0: 0241 ae3c 95cd 05bc 438a 013c d8f1 52bc
000002d0: e57f 493c 4fb8 d6bc 3c87 05bc 915a 1f3c
000002e0: d888 fabb 6554 aa3c 94ed d9bc 5d4a 95ba
000002f0: 1b04 993c c093 af3b fb47 7a3c f7d7 613c
00000300: f493 483c 909e da3c 50c1 75bc 1b90 3abc
00000310: 9bce 57bc 7c7c cd3c 923f 413c 207e f1bb
00000320: f723 0b3c 7adb 89bd ac39 053c e2a8 e7ba
00000330: 5744 11bd aeee 1a3b 8b1d 81bc 1dda 863c
00000340: 50f6 313d c760 d63b 842f 97bc 794a af3c
00000350: e0ae 9dbc a19f 91bc 7241 073d 0fe1 01bd
00000360: bbc2 91bb b91d ecbc 6ce1 d73c b150 14bd
00000370: cf2f 373c c7f5 14bc 6b5c 583c efdb 133d
00000380: c6a3 9c3c f68a ab3c 9419 c9bc 403b 8abc
00000390: 7927 07bb 2cb2 0a3c 8c38 8fba 6236 dc3c
000003a0: e5e0 2fbc fcec 84bb 9517 dabc f0bd af3c
000003b0: 61f6 26bb dfcc 0fbb 95a5 20bd 72df 25bc
000003c0: e283 6fbc bde3 1f3d d4cb c13c 074c 103c
000003d0: 21cf 643c a205 47bd 1bfc a73b c91d 953c
000003e0: 24e2 923c b509 2039 4722 66bb f645 993b
000003f0: f6d0 1c3d e633 6d3c f2bf 02bd 33f9 9fbc
0.0027163976 -0.0036377439 0.00590674 -0.0042673517 0.007782454 -0.02311471 0.029533349 0.020092359
-0.00757201 -0.017799454 -0.047951426 0.022755193 0.011482426 -0.018082647 -0.004322536 -0.023165623
0.007253256 -0.009395784 0.03153207 0.00014714082 0.011455311 0.016665798 -0.023891067 -0.016573094
0.0035142123 -0.012667967 0.0153338 0.03282828 -0.057247523 -0.028722648 0.027128719 -0.011808842
0.022630634 -0.021804422 0.01087329 -0.020724662 -0.00081260345 -0.019460147 0.015290531 0.016945396
-0.021130692 0.008266158 -0.02691158 -0.015615546 -0.008052934 0.024355285 -0.013746204 0.016662847
0.04957952 0.009649396 0.009772512 0.031112365 0.004349139 -0.038273443 0.0097624045 0.0029812756
-0.038059626 0.012545889 -0.032875963 0.012628377 -0.022549784 -0.017750608 -0.020442396 0.023041831
-0.00015278459 -0.008634726 0.01078827 0.021500204 -0.014693341 0.035190213 -0.00429537 0.018185042
-0.011992644 -0.05786497 0.001292763 0.0079907775 -0.00649613 0.03798506 -0.009913998 -0.0069086007
0.005953591 0.010916096 0.040114973 0.01599334 -0.025463974 0.009403686 -0.00031709275 -0.023025466
0.02428011 -0.013843735 -0.0146153765 -0.018432315 0.031792857 0.01293447 0.015625564 0.036864556
0.017789233 -0.0067493296 -0.036183212 -0.009085811 0.009269414 -0.003535885 -0.027593937 -0.0019113946
0.019948516 0.0009417119 -0.014650437 0.025861492 0.01713664 -0.018797617 0.008865759 0.029921185
-0.0049915663 0.052263565 -0.0022961264 0.04913436 0.012093498 -0.042863864 0.0018457859 0.010816535
-0.024099533 -0.023569407 -0.005699738 -0.028172748 -0.002350417 -0.016403303 0.0037056413 0.008574923
-0.035081714 -0.035876524 -0.0077519994 -0.03222755 0.012943648 -0.014635178 -0.012328814 0.006544625
-0.03414265 -0.0066051465 0.01832467 0.019861037 0.008966788 -0.008055535 -0.024856508 0.0024758878
-0.02816414 -0.010448343 -0.024657048 -0.0023544137 0.037996702 -0.0011710345 0.020245807 -0.015463161
-0.007192576 -0.0073434846 0.014506341 -0.021601435 0.0043866015 0.047363672 0.036899175 0.006275169
-0.02297898 0.018613938 0.034138512 0.0043357923 -0.014124342 0.0049912566 -0.010722944 0.0154892355
0.011125199 0.021761205 0.018043075 0.009137267 -0.004301335 -0.01762246 0.0071521145 0.003486835
0.021271233 -0.00816669 0.007906499 -0.012875043 0.012298559 -0.026210932 -0.008149918 0.009726183
-0.0076457076 0.020792196 -0.026602544 -0.001138996 0.018678715 0.0053581893 0.015275951 0.0137844
0.012242306 0.026686937 -0.014999703 -0.0113868965 -0.013171817 0.025083773 0.0117949415 -0.0073697716
0.008492461 -0.06731315 0.008131426 -0.0017674232 -0.035465565 0.00236408 -0.015761157 0.016461426
0.043447793 0.0065422985 -0.018455274 0.021397816 -0.019248426 -0.017776312 0.033021398 -0.031708773
-0.0044482625 -0.028822767 0.026352607 -0.036209766 0.011180832 -0.009091801 0.013205628 0.036098417
0.019121062 0.020940285 -0.02454833 -0.016873956 -0.0020622893 0.008465331 -0.0010926886 0.0268814
-0.010734771 -0.004056571 -0.026622573 0.021452874 -0.0025476443 -0.002194218 -0.03922041 -0.010124074
-0.014618846 0.039035548 0.023656763 0.008807189 0.013965399 -0.048589356 0.005126489 0.01820268
0.017930098 0.00015262405 -0.0035115646 0.0046775294 0.03828522 0.014477706 -0.031921335 -0.019528007

bert.embeddings.token_type_embeddings.weight f4 [2, 50]
00000000: 047a a9bc ddac 993c bd57 a7bb 52f4 adb9
00000010: eede b5bc 579b 2abc e033 2bbd fa39 073d
00000020: 244c 843c f46b 413c ecd3 153d 5677 893c
00000030: 5783 ed3b efba 2c3c 792d ac3c a585 30bc
00000040: b372 84bb 332b 7f3c 4431 5f3c e124 f83c
00000050: 46c3 023c 7bbb d6bc 5b3f 183c e7df ffbc
00000060: 636b 693c 7831 28bc 4b66 1c3b e488 babc
00000070: 0169 d2bb 1190 81bc 94a1 97b9 3e19 bbbc
00000080: 404d 07bd c55a 1ebd 84ce 2bba 3352 ea3b
00000090: 9713 41bc 9d7e 933b 94ce bbbb f9b3 a93c
000000a0: 545e 0abd f084 12bd d908 c7bc d5a5 09bc
000000b0: ec78 0f3c f7fd 683c 376d b2bc d4a0 b63c
000000c0: 5dd0 8dbc f8ac b1bc 0959 983b 0ff6 cabc
000000d0: d7b7 773c 5cbd 62ba 8c9c 4e3c 521d 85bb
000000e0: 162f 17bb 5943 68bc 3de3 b33b c77d 94bb
000000f0: f798 ec3b c717 debb 4b3b 333c a62a bc3c
00000100: 9f5b 043d 075b 253d d4ac f23b 877f 88bb
00000110: 6454 b2bc 194b a7bc b000 4fbc 427e beb9
00000120: 6639 18bd 978e 1f3b 3b77 e03c 44da 873c
00000130: 1bed 5cbd 2f84 bbbb e0a6 f3b9 f5c1 333c
00000140: 2f5c b83b f4f2 e0bc d3cd 4c3d fdfc 8dbc
00000150: 7ba3 a93c 8e27 2437 6264 6e3c 3f53 14bd
00000160: 1896 adbb 8dcb 24bc d088 6a3b 9dcf 993c
00000170: f1ba 82bb cda3 193c d39c 79bb 3943 bdbb
00000180: 3527 53bc c59a abbb 3c4a b2ba 96fa 8e3b
-0.020688064 0.018759185 -0.0051068948 -0.00033179164 -0.022201028 -0.0104130125 -0.04179752 0.033014275
0.016149588 0.011805523 0.036579058 0.016780537 0.007248323 0.010542615 0.021017777 -0.010774051
-0.0040419935 0.015574264 0.013622586 0.030291023 0.007981127 -0.026212445 0.009292449 -0.031234695
0.014246794 -0.0102657005 0.0023864682 -0.022770353 -0.006421209 -0.015815767 -0.0002892135 -0.022839185
-0.033032656 -0.038660783 -0.00065539056 0.007150912 -0.011784456 0.0045011775 -0.005731413 0.0207157
-0.033781365 -0.03577131 -0.024296211 -0.008401354 0.008756857 0.014220706 -0.021780593 0.022293486
-0.01731127 -0.021688923 0.0046492857 -0.024775533 0.015119514 -0.00086494326 0.012610566 -0.004062333
-0.0023068837 -0.014176213 0.0054897354 -0.0045315954 0.0072203833 -0.006777737 0.0109394295 0.022969555
0.03231394 0.040370014 0.0074058566 -0.004165593 -0.021768756 -0.020421552 -0.012634441 -0.00036333693
-0.037164114 0.0024346465 0.027400604 0.01658357 -0.05393706 -0.0057225446 -0.00046472903 0.010971536
0.0056262235 -0.0274596 0.050000977 -0.017332548 0.020707836 9.784371e-06 0.0145503 -0.036212202
-0.0052974336 -0.010058296 0.0035787113 0.018775756 -0.0039895703 0.009377432 -0.003808786 -0.005775836
-0.012887766 -0.005236956 -0.0013602446 0.0043633683

bert.embeddings.LayerNorm.weight f4 [50]
00000000: 0000 803f 0000 803f 0000 803f 0000 803f
00000010: 0000 803f 0000 803f 0000 803f 0000 803f
00000020: 0000 803f 0000 803f 0000 803f 0000 803f
00000030: 0000 803f 0000 803f 0000 803f 0000 803f
00000040: 0000 803f 0000 803f 0000 803f 0000 803f
00000050: 0000 803f 0000 803f 0000 803f 0000 803f
00000060: 0000 803f 0000 803f 0000 803f 0000 803f
00000070: 0000 803f 0000 803f 0000 803f 0000 803f
00000080: 0000 803f 0000 803f 0000 803f 0000 803f
00000090: 0000 803f 0000 803f 0000 803f 0000 803f
000000a0: 0000 803f 0000 803f 0000 803f 0000 803f
000000b0: 0000 803f 0000 803f 0000 803f 0000 803f
000000c0: 0000 803f 0000 803f
1.0 1.0 1.0 1.0 1.0 1.0 1.0 1.0
1.0 1.0 1.0 1.0 1.0 1.0 1.0 1.0
1.0 1.0 1.0 1.0 1.0 1.0 1.0 1.0
1.0 1.0 1.0 1.0 1.0 1.0 1.0 1.0
1.0 1.0 1.0 1.0 1.0 1.0 1.0 1.0
1.0 1.0 1.0 1.0 1.0 1.0 1.0 1.0
1.0 1.0

bert.embeddings.LayerNorm.bias f4 [50]
00000000: 0000 0000 0000 0000 0000 0000 0000 0000
00000010: 0000 0000 0000 0000 0000 0000 0000 0000
00000020: 0000 0000 0000 0000 0000 0000 0000 0000
00000030: 0000 0000 0000 0000 0000 0000 0000 0000
00000040: 0000 0000 0000 0000 0000 0000 0000 0000
00000050: 0000 0000 0000 0000 0000 0000 0000 0000
00000060: 0000 0000 0000 0000 0000 0000 0000 0000
00000070: 0000 0000 0000 0000 0000 0000 0000 0000
00000080: 0000 0000 0000 0000 0000 0000 0000 0000
00000090: 0000 0000 0000 0000 0000 0000 0000 0000
000000a0: 0000 0000 0000 0000 0000 0000 0000 0000
000000b0: 0000 0000 0000 0000 0000 0000 0000 0000
000000c0: 0000 0000 0000 0000
0.0 0.0 0.0 0.0 0.0 0.0 0.0 0.0
0.0 0.0 0.0 0.0 0.0 0.0 0.0 0.0
0.0 0.0 0.0 0.0 0.0 0.0 0.0 0.0
0.0 0.0 0.0 0.0 0.0 0.0 0.0 0.0
0.0 0.0 0.0 0.0 0.0 0.0 0.0 0.0
0.0 0.0 0.0 0.0 0.0 0.0 0.0 0.0
0.0 0.0

bert.encoder.layer.0.attention.self.query.weight f4 [50, 50]
00000000: 6d44 45bd 96e2 a5ba c942 fb3c 8573 543c
00000010: dd91 263c 342c af39 6221 b03b aea4 573d
00000020: cd5d 823c 9353 76bc 1ad7 15bd abe0 aebc
00000030: 7b4b c03c c5bd 313d 0629 c3bc ca19 ae3c
00000040: 0ab2 cbbc 0d52 a43c 7d51 423c 6c35 0d3c
00000050: 812b d13b ebc3 293c ab7c e53c 050c d33b
00000060: 70aa 49bc 2aed f33b 146f 7bbc 9dce 7d3c
00000070: d9b6 723b eb1b d43c 82a4 c7bc 5cd2 e93c
00000080: fefc 97bc bc8e af3c 3979 8e3a 5bb2 073d
00000090: 5efd 6d3c a9d5 423d 51f8 133c d9a3 16bd
000000a0: a332 eb3b 9196 18bd 81f1 14bc 74b7 8b3b
000000b0: 5e82 453c f4e1 1e3d b10a 943c fdc1 87bc
000000c0: 0d86 46bd 2c35 763c cbe0 e83b feeb adba
000000d0: dea9 eabb 8ef2 f1bb 41c1 ce39 c971 7c3c
000000e0: d5bf 333d dedc c33c 5cad ecbb 72af 953c
000000f0: e414 03bc 6d1c 843c c161 02bb 4d25 b23c
00000100: 9ec4 cd3a f8ac c23a 3576 36bc 0284 c7bc
00000110: 9847 a63c 5ee3 a8bb 3be9 e53c e52b dcba
00000120: 020b 16bc e7f8 b4bc 6544 b83c bc96 f13b
00000130: 3678 003d 262f 74bb b331 7a3c 3e74 2fbc
00000140: cd80 0e3d a0e3 3bbb 414e 763c 6167 c8bc
00000150: 0296 40bd 22cb 303c 16b4 8ebb f0b5 463c
00000160: a038 eabc 6d30 0fbc 6971 30b9 f3bf 9f39
00000170: 673a 433c 429a 4abd 097b 26bd 59d1 6dbb
00000180: fc6d 2ebc 9475 ad3b af7a 90ba 828b 353d
00000190: 38a3 ecbc e17b 58bb bce2 503b 1055 1d3d
000001a0: ae59 20bc 2b2d 72bc 2207 b93c 67ff 983b
000001b0: f5e4 093d 9201 d5bb 3046 443c 6611 c9bb
000001c0: 1097 263b f761 0b3c 665a 343a c0b3 933c
000001d0: 78cb 68bc 6ca6 193d b879 e8bb 32c5 cbbb
000001e0: 36b0 00bd 3e61 833c f8e5 dabc a3ec 7a3b
000001f0: ce0c f2bb c07e f63b 46dc c5bb 54b1 183d
00000200: 53ff f3bb 2438 abbc 259c ddbb 3c70 e43c
00000210: 14fb 023d e517 a8bb 10ca 903c 8961 63bc
00000220: da5c 22bc 5778 733c c212 41bc e618 b43c
00000230: aeea c4bc 2639 a53c b4f2 8d3d 1f42 8bbc
00000240: e65e cc3b 2410 8f3c 86a9 2cbc 1062 2f3d
00000250: a0cd 8a3c a2ca 2cbc d82a f63c 83df 08bd
00000260: e014 1cbc 6445 dcbc f3d0 c4bc fa23 0abb
00000270: 66d6 d3bc 06e1 2e3c 061a ddbc 6f67 e23c
00000280: a233 e43c b270 33bb 8cfc 923a a179 f03a
00000290: f0d5 cfbb 39b2 0e3d fb50 a83c 3e18 58bb
000002a0: 14b6 59bc b59c 7ebc ff53 0f3c bb8f 96b9
000002b0: f5b6 52bc 0795 d3bb d2d5 20bc 188b 3bbd
000002c0: 3804 16bd d88d 6e3c a21a f13b ef22 b63c
000002d0: c125 aa3b b459 b1bc 7993 233c ef9f 873c
000002e0: c357 00bc 8eb1 9abc 7e28 a5bc 8a6b ea3b
000002f0: 7bbe 743b e08c 1d3c 3085 e0bc 94a1 ef3b
00000300: 0fa7 803b b7be 30bd d7c6 89bc 72f2 24bc
00000310: a191 30bd 6a52 d13a 86bd 2b3b d7b4 333c
00000320: 554c ff3c 2202 a3bc 995a a9ba 4904 d5bc
00000330: 3747 5c3c e516 04bd df07 8cbc 2ba9 63bc
00000340: 9b71 fe3a 1549 6c3c 9eb7 113d c104 50bb
00000350: 67e8 8bbc 0d16 973c befe 493c 606f d43b
00000360: 5d0d f4bc e172 d93c 55e2 fb3a 6305 76bc
00000370: 8caf 0b3d 1e9d 1fbd a4d4 96bc 9bdd c0bb
00000380: 979a 2ebc 38f1 013c b078 63bd 7cb4 923c
00000390: d2d7 bebb 4ec9 403c d161 8e3b 89fd 82bc
000003a0: d577 09bd aad2 51bc de9e 843c 0233 fbbb
000003b0: 8048 4bbc 22d6 84bc 3b1d 21bc 07cf c03c
000003c0: 2a31 74bc 1c7d d3ba 8bc9 943c e0b4 9cbc
000003d0: 1da8 d1bb 2050 7e3a 52dc 71bc 2c42 f4bb
000003e0: c909 713c b742 88bc 5533 3f3b 3856 513c
000003f0: ef9c 093c 7ba9 c63a 4798 44bb 941a 793c
-0.04816096 -0.0012656029 0.030671494 0.012966995 0.010166612 0.00033411535 0.0053750733 0.052647285
0.015913868 -0.015034574 -0.03658209 -0.021347364 0.023473492 0.04339387 -0.023823272 0.021252532
-0.02486517 0.020058656 0.011860249 0.008618694 0.00638336 0.010361652 0.028013548 0.006440642
-0.012308702 0.0074440436 -0.015346307 0.015491155 0.0037035255 0.025892219 -0.024370436 0.02854269
-0.018553253 0.021430366 0.0010869867 0.033129077 0.0145257395 0.047567043 0.009031371 -0.03677735
0.007177667 -0.037252966 -0.009090782 0.0042638127 0.012055008 0.038789704 0.018071504 -0.016571993
-0.048467685 0.015027326 0.0071068755 -0.0013269184 -0.007161363 -0.007383651 0.00039435367 0.015407988
0.043884117 0.023909029 -0.0072228145 0.018272135 -0.008000586 0.016126836 -0.0019894692 0.021746302
0.0015698855 0.0014852574 -0.011136581 -0.024354938 0.02029781 -0.0051540574 0.028065315 -0.001679775
-0.009157898 -0.022091342 0.02249355 0.0073727053 0.031364642 -0.0037259548 0.015270638 -0.010708867
0.034790803 -0.002866961 0.015033306 -0.024463357 -0.04701806 0.010790618 -0.004354964 0.012128338
-0.028591454 -0.008739573 -0.00016826917 0.00030469857 0.01191578 -0.049463518 -0.04064468 -0.003628811
-0.0106463395 0.0052935574 -0.0011022891 0.0443225 -0.028886423 -0.0033032822 0.0031873425 0.0384112
-0.009787006 -0.014781277 0.022586409 0.004669118 0.033665616 -0.0065004313 0.011979625 -0.0061361073
0.002541963 0.008507243 0.00068799255 0.018030047 -0.014208667 0.037512228 -0.007094588 -0.006218576
-0.031418048 0.01603758 -0.026720986 0.003828802 -0.0073867803 0.007522434 -0.0060382215 0.03727849
-0.0074462085 -0.020900793 -0.0067629986 0.027885549 0.031977728 -0.0051298016 0.017674476 -0.013878235
-0.009909833 0.014860234 -0.011784257 0.021984529 -0.024037685 0.020168852 0.069310576 -0.016999302
0.0062368987 0.017463751 -0.010538464 0.04281813 0.016943753 -0.010546358 0.030049726 -0.033416282
-0.009526461 -0.026888557 -0.024025416 -0.0021078573 -0.02585907 0.010673767 -0.026989948 0.027637212
0.027856652 -0.0027380404 0.0011214181 0.0018346795 -0.006342642 0.034837935 0.020546427 -0.0032973434
-0.01328804 -0.015540292 0.008748054 -0.00028717317 -0.012861003 -0.0064569744 -0.009816604 -0.045786947
-0.036625117 0.014560185 0.007357911 0.022233455 0.005192489 -0.02164922 0.009983891 0.016555754
-0.007833424 -0.018883493 -0.02016091 0.007153933 0.003734498 0.009616107 -0.027407259 0.007312963
0.003926165 -0.04315063 -0.016818447 -0.010067569 -0.043107633 0.0015969996 0.0026205494 0.010968409
0.031164328 -0.019898478 -0.0012920677 -0.02600302 0.013444713 -0.032248396 -0.017093597 -0.013895313
0.0019412519 0.014421721 0.0355755 -0.0031741115 -0.017078592 0.018443132 0.012328802 0.0064830035
-0.029791528 0.026544036 0.0019217232 -0.015015933 0.03410296 -0.038968198 -0.018411942 -0.0058857924
-0.010656974 0.007931046 -0.05553502 0.017908327 -0.0058240676 0.011766745 0.0043451567 -0.015990036
-0.033561546 -0.012806574 0.016189035 -0.0076659927 -0.012407422 -0.016215388 -0.009833629 0.023536218
-0.0149043 -0.0016135308 0.01816251 -0.019129217 -0.0063982145 0.00097012706 -0.014762001 -0.0074541774
0.014711806 -0.016633375 0.0029174883 0.012776904 0.008399232 0.001515671 -0.002999799 0.015204091

bert.encoder.layer.0.attention.self.query.bias f4 [50]
00000000: 0000 0000 0000 0000 0000 0000 0000 0000
00000010: 0000 0000 0000 0000 0000 0000 0000 0000
00000020: 0000 0000 0000 0000 0000 0000 0000 0000
00000030: 0000 0000 0000 0000 0000 0000 0000 0000
00000040: 0000 0000 0000 0000 0000 0000 0000 0000
00000050: 0000 0000 0000 0000 0000 0000 0000 0000
00000060: 0000 0000 0000 0000 0000 0000 0000 0000
00000070: 0000 0000 0000 0000 0000 0000 0000 0000
00000080: 0000 0000 0000 0000 0000 0000 0000 0000
00000090: 0000 0000 0000 0000 0000 0000 0000 0000
000000a0: 0000 0000 0000 0000 0000 0000 0000 0000
000000b0: 0000 0000 0000 0000 0000 0000 0000 0000
000000c0: 0000 0000 0000 0000
0.0 0.0 0.0 0.0 0.0 0.0 0.0 0.0
0.0 0.0 0.0 0.0 0.0 0.0 0.0 0.0
0.0 0.0 0.0 0.0 0.0 0.0 0.0 0.0
0.0 0.0 0.0 0.0 0.0 0.0 0.0 0.0
0.0 0.0 0.0 0.0 0.0 0.0 0.0 0.0
0.0 0.0 0.0 0.0 0.0 0.0 0.0 0.0
0.0 0.0

bert.encoder.layer.0.attention.self.key.weight f4 [50, 50]
00000000: 47f7 82bb 7900 d03b 3cbf d43c a67b 3cbb
00000010: d47a feba a2d1 cebb 350d cf3b e0ad 05bd
00000020: b489 8abc c40f 0fbb cf52 b4bc 9b92 2a3d
00000030: a087 a63c 7237 443c 0476 36bc 8abb 6bbc
00000040: a47c 0f3c f26f 283d 9e90 81bb ddad d2bb
00000050: af72 b4bc 187b 07bb 38b3 53bc f300 b23c
00000060: ab73 6fbc 14b6 833c 19c3 b43c 5d36 d8bb
00000070: e03b 173c 859a 763c c315 f2bb e4ce c8bb
00000080: 422f 57bd a573 293c 6ad1 13bc f589 873a
00000090: 5eff 093d 2329 09bd 8a06 0cbd 2209 50ba
000000a0: 2af6 913c 3b87 7abc 24ac 1b3d 90e1 b93c
000000b0: 2915 60bb 76f9 aebc 4625 163d 24c3 a8bb
000000c0: cc4b 723c bdf1 a9bc f3e2 063d 00e9 f5bc
000000d0: 8b0c febc 6346 a23c 2bd4 193d fc06 d33c
000000e0: 016c 013c 2e09 0abd f774 15bc 5516 f3bb
000000f0: 328c 75ba e27c 35bc e935 583c 7757 ad3a
00000100: c776 bcbc cadd fb3c ac03 9d3c b306 493d
00000110: d049 56bc 85d0 c23c 03ab 69bc c4ac 3d3c
00000120: e000 7e3c 20d2 bd3c 2428 193c 0c6e eabc
00000130: 2ad1 a63b 6e4b c1bc 9477 54bb 6a6a 7dbc
00000140: 65bb 4fbb 1f1a 13bc f026 913c fe8f f3bc
00000150: f476 bbbc a5f3 ca3a 374d 743c 2732 1bbc
00000160: 2b7b b33c e6c9 603c bb0f 633c d9bd 5fbc
00000170: ce18 36bd 9754 afbc 2f77 a7bc 002a b9bc
00000180: 6939 eabc af43 ddbc e0ad ecba 77e3 7fbc
00000190: 81f2 42bb e9f8 88bc 65cb 143d 8a35 973c
000001a0: 5c7c c0bc 6fd1 5f3c d3af e5bc 336d 25bc
000001b0: 548a 3bbb 2dc9 c6ba 10ae c2bc d406 843c
000001c0: a0d8 853c 5966 453c 1017 583d 3337 453c
000001d0: ae0b e83c 1795 36ba 268b b13c 662f 3d3c
000001e0: 2af0 bc3c d341 58bb 7d96 97bb 74a7 ebbc
000001f0: 371f b1bc cfa0 95bc 7283 4e3c 9c6d cdbc
00000200: 6741 8abc a998 ebbc cd5b 8b3c 0a34 c53c
00000210: 0ff0 b6bc 623d 9f3b 67cf 82bc cf32 2ebb
00000220: 6bfe 8bbb 8ccc 0f3b e9ad c23c f796 fab8
00000230: 14e2 1b3c 52e0 31bc 45df 473c 020d ccbc
00000240: 10b2 4fbc 346c fa3c 6eca 133d 9686 283d
00000250: 1de9 51bb 1716 973b e2f3 8e3c db98 7f3a
00000260: b58f b4bc c6a0 f7ba 34a9 d0bc 39bb c0bb
00000270: 3f37 13bc db32 cebc 55ba a13b f795 ae3c
00000280: 8a77 923c 09a7 44bb 7526 633c 72f5 833b
00000290: 7d83 31bc 2767 863a 20fc 183c fd19 073d
000002a0: 0222 bd3c 1f64 19bc 6ccc 1cbb 6013 d2bc
000002b0: cafd d1bb 8831 17bd a7ad 0d3c 2571 10bc
000002c0: 5e82 863c 4715 d63c 55ac cfba 6a3c 0e3d
000002d0: a654 34bd e77b ef3c 96dd 0bbd ad33 81bc
000002e0: e6ed d7ba 7858 53bd 6dfa 8b3c 7d9e 4c3a
000002f0: 47cf 3dbc c911 26ba e136 ce3c 0a9f 60bc
00000300: 5950 383c 4bfd 14bd 7228 d6bb 4850 06bd
00000310: 8c37 f83c 93f2 f0bc 4ef7 4cbc a7e4 2bbc
00000320: 3c65 453c 6c5f 64bc 9e79 7cbc 3bdd 94ba
00000330: 9b64 ac3c d4ee a73b 786f 7cbc be85 eb3b
00000340: 219d b33c 33b4 ea3c 43dd 213d afa3 b1bc
00000350: e1a3 6c3c b822 073d 24b4 163d a21b 2d3d
00000360: 8d4c 0ebb d438 983b 9bcf 363c 50c5 c73c
00000370: 8164 6bbc 65e6 2eb8 a61f c7bc 4b19 a83b
00000380: 1b9e 803c 3f76 0fbc ca45 d33c 631a 1b3d
00000390: 9083 7d3c 6851 1f3c c642 84bc c706 a73a
000003a0: 9933 ea3b d740 e93a 5f53 073c 3307 eebc
000003b0: 704f 4fbb 77f0 d0ba c703 1dbd d29c 133c
000003c0: 1f45 843b 754e 1b3d 1705 453b 5952 c93a
000003d0: 7b39 9d3c f9f2 3e3c 23ed 0dbc ad2b 363c
000003e0: 0bd3 333d 17e6 1cbc 271d 6cbc 005d d7bc
000003f0: b4fe 83bc e919 bd3c a994 41bc c9e2 a7bb
-0.003996763 0.0063477126 0.025970094 -0.0028760224 -0.0019415268 -0.0063116113 0.006318713 -0.032636523
-0.016911365 -0.0021829465 -0.022012142 0.04164372 0.020328343 0.01197611 -0.011136536 -0.0143879745
0.008757744 0.041122384 -0.0039540073 -0.0064294175 -0.022027342 -0.0020672735 -0.012921147 0.021728968
-0.01461498 0.016078033 0.022065686 -0.0065982775 0.009230584 0.015051489 -0.007387848 -0.006128179
-0.052535303 0.010342513 -0.009022096 0.0010340797 0.033690803 -0.033486497 -0.034185924 -0.0007935931
0.017817575 -0.0152910305 0.038005963 0.022690564 -0.00341923 -0.021359187 0.03665664 -0.0051502157
0.014788579 -0.020745153 0.03293128 -0.03001833 -0.03101184 0.019808954 0.037555855 0.025760166
0.007899285 -0.03370016 -0.009122125 -0.0074184337 -0.0009366899 -0.011077138 0.013196447 0.0013224919
-0.023005856 0.030745406 0.01916679 0.049078654 -0.013079122 0.02378107 -0.014261964 0.011576835
0.015503138 0.023171484 0.009347949 -0.028616928 0.0050908523 -0.023595538 -0.0032419907 -0.015467266
-0.003169739 -0.008978396 0.017718762 -0.029731747 -0.02288387 0.0015483989 0.014910988 -0.0094724065
0.021909317 0.013720011 0.013858731 -0.013656103 -0.04445725 -0.02140264 -0.020442573 -0.022603035
-0.028591828 -0.027009813 -0.001805719 -0.015618197 -0.0029746594 -0.016720252 0.036326785 0.018458147
-0.0234968 0.013660773 -0.028037941 -0.010096836 -0.0028616386 -0.0015166156 -0.02376464 0.016116537
0.016338646 0.012048327 0.05275637 0.012037086 0.028325882 -0.0006964965 0.021672796 0.011546945
0.023063738 -0.0032998219 -0.004626094 -0.028766371 -0.02162133 -0.018265156 0.012604581 -0.02507668
-0.01687689 -0.028759317 0.017011547 0.024072666 -0.022331266 0.0048596123 -0.015968038 -0.0026580577
-0.0042722723 0.0021941988 0.023764567 -0.00011949048 0.00951435 -0.010856705 0.012199228 -0.024908546
-0.012676731 0.030569173 0.036081724 0.041143976 -0.0032029815 0.0046107876 0.017450277 0.0009750255
-0.022041181 -0.0018892519 -0.025471307 -0.0058816937 -0.00898534 -0.025170734 0.0049355426 0.021311743
0.017879266 -0.0030006787 0.013864149 0.004027062 -0.010834572 0.001025413 0.009337455 0.03298377
0.023087505 -0.00936225 -0.0023925556 -0.025644004 -0.006408428 -0.03691247 0.008647359 -0.008816038
0.016419586 0.026133193 -0.0015844206 0.034725584 -0.04402604 0.029233886 -0.034146868 -0.015771711
-0.0016474098 -0.051598042 0.017087186 0.0007805599 -0.011585063 -0.00063350477 0.025172653 -0.013709793
0.011249625 -0.03637437 -0.006535583 -0.032791406 0.030299924 -0.029412543 -0.012510134 -0.010491527
0.012048062 -0.013938766 -0.015409855 -0.0011357436 0.021044066 0.005124906 -0.015407436 0.007187574
0.02192551 0.028650379 0.039517652 -0.021684496 0.014443369 0.032992095 0.03679289 0.04226268
-0.0021713108 0.0046454463 0.011157895 0.024386078 -0.014367224 -4.1699404e-05 -0.024307083 0.0051299683
0.01570039 -0.008756219 0.025790114 0.03786696 0.0154732615 0.009723999 -0.016145121 0.0012743109
0.007147264 0.0017795813 0.008259623 -0.029056167 -0.0031633042 -0.0015940805 -0.03833368 0.009009557
0.00403656 0.03791662 0.0030062848 0.0015359625 0.019192448 0.011654609 -0.008662495 0.011118812
0.043902438 -0.009576342 -0.014411247 -0.026289463 -0.016112663 0.023083644 -0.0118152285 -0.0051234704

bert.encoder.layer.0.attention.self.key.bias f4 [50]
00000000: 0000 0000 0000 0000 0000 0000 0000 0000
00000010: 0000 0000 0000 0000 0000 0000 0000 0000
00000020: 0000 0000 0000 0000 0000 0000 0000 0000
00000030: 0000 0000 0000 0000 0000 0000 0000 0000
00000040: 0000 0000 0000 0000 0000 0000 0000 0000
00000050: 0000 0000 0000 0000 0000 0000 0000 0000
00000060: 0000 0000 0000 0000 0000 0000 0000 0000
00000070: 0000 0000 0000 0000 0000 0000 0000 0000
00000080: 0000 0000 0000 0000 0000 0000 0000 0000
00000090: 0000 0000 0000 0000 0000 0000 0000 0000
000000a0: 0000 0000 0000 0000 0000 0000 0000 0000
000000b0: 0000 0000 0000 0000 0000 0000 0000 0000
000000c0: 0000 0000 0000 0000
0.0 0.0 0.0 0.0 0.0 0.0 0.0 0.0
0.0 0.0 0.0 0.0 0.0 0.0 0.0 0.0
0.0 0.0 0.0 0.0 0.0 0.0 0.0 0.0
0.0 0.0 0.0 0.0 0.0 0.0 0.0 0.0
0.0 0.0 0.0 0.0 0.0 0.0 0.0 0.0
0.0 0.0 0.0 0.0 0.0 0.0 0.0 0.0
0.0 0.0

bert.encoder.layer.0.attention.self.value.weight f4 [50, 50]
00000000: 89ba cebc e749 c8ba d35d 523c 2671 60bc
00000010: e855 08bc f5c3 a23c 17ab ab3c 07dd 91bc
00000020: 3b36 b2bc 866c 923a 0c4b 953c bdc5 d5bb
00000030: cfc6 263c 07a4 26bd e6d9 4c3b 26d1 52bc
00000040: a786 033a 3796 a73c 1c3c e9bc 8e3d a93c
00000050: 1730 d83b f454 863b e59b 3bbc 42c2 63bc
00000060: 3780 b9bb 7690 8b3c 459c b5bb 3edf 403c
00000070: 869e bbbc 3d51 533c 6dde 9cba d91f 70bc
00000080: f9b9 86bc d314 1bbc 3b47 a0bc ab8a d23a
00000090: e1f2 a8bc 80bf 84bc 87d4 f6bc d38a fc3c
000000a0: d717 ca3c 6a56 853c 3638 23bb e0df b2bc
000000b0: 2256 4bbb a64e 26bd e16e efbc 1926 a53c
000000c0: 23ff 06bd 1b13 e7bb 22f9 e1bb 7579 663c
000000d0: a45c 9ebc 36b2 0dbd 52cf 293d e1a2 1ebc
000000e0: 37a6 f0bc c275 02bd b810 df3b 2481 bc3c
000000f0: e967 7ebc f013 0a3c 853f 3f3c 6b63 21bc
00000100: a72e 4ebd 27cc 8abb 4f04 7cbc a2b0 0cbc
00000110: 9015 edbc 35ee cd3c bfc7 99bb 15f5 ce3c
00000120: 17f4 b83c 0b9a 913c e778 b13c c4c4 9f3b
00000130: 7698 a6ba 1bf8 f33b 4bec 43bc e79e 9aba
00000140: c118 0b3c a2d9 ec3b 60e3 a8bc 3b24 243d
00000150: 2676 bcbc d5dd 5cbc 8264 203d 4ea5 0bbb
00000160: ee83 5a3c a15a 923c 9b6c 753c ddbc 893c
00000170: d4c7 65bc 2c41 61bc 3654 303c 1b46 043d
00000180: 42cc 9abc 6c85 72bc 3757 0f3d 6147 04bd
00000190: 2467 ad3c 8609 eebc 196d 5a3c 1618 903b
000001a0: b88a 06bc fbbc 563c 47d4 2e3c 8ab5 07bc
000001b0: 237e 7dba b4bb bbba 21c4 31bc f3a0 1f3c
000001c0: f72a 52bc d40d f8ba ca05 5dbb e605 d5bb
000001d0: 8993 80bc aa34 9bbb cb8c 74bc 7236 c7bc
000001e0: 26a1 603b 0971 e53c ae3b d13c dd4d 94bc
000001f0: 775d 0a3b 2652 133c 7723 cabc 802d b33c
00000200: edcd a3bc c6ab 46bc 2234 153c d59c dc3c
00000210: 1d80 debc 17f8 913c 6252 253b 19e1 0bbc
00000220: 81bf 07bc a06c 9d3c d8f0 a4bb cd04 923c
00000230: f89d 4dbc 01f0 c83c f5eb 72bc 87ec 24bd
00000240: e567 04bd 5276 a2bc 8844 0e3c 64de bcbc
00000250: 936a 5f3c d147 1a3b 67d8 cfbc d042 543b
00000260: 2bb0 803a 06aa 963c 53c5 65bc 62c6 6b3c
00000270: 016c 053c 8cdc 73bc aa95 093a b135 95bc
00000280: d926 bf3a 37cb f53b 8989 f1bc 77e8 b3bb
00000290: edef 29bc f6c8 813c 396a 9bbc 705a 1cbb
000002a0: d416 d8bb c665 fbbc 1eff bbbc fa86 8f3c
000002b0: eefa f13b 5040 0abd 1030 1ebd 1a30 a13b
000002c0: dd57 c33c 61e5 8b3c 3157 02bc 1440 17bd
000002d0: 58b6 e63c 9d39 50bc abf1 c7bc 7f49 10bd
000002e0: 386e bcbb ce51 34bc 3d90 73bc 8009 e0bc
000002f0: 1bd6 3a3c 7d15 c0bc 66e4 133c 5e26 ac3c
00000300: 4fc1 6c3c 05af eebb cb02 a9bc fec4 38b9
00000310: 29a6 53bd 4c05 9abc c7a3 6abb 46b2 0fbd
00000320: 4d87 203c ea30 333c ef1c a33c 901d cf3b
00000330: af06 5cbc de21 ddbc 78df 2e3c 5e0d 853c
00000340: 381a 02bb ab4f 4cbd a182 e1bb 95d9 76bc
00000350: c9c2 953a db8b fdbb 0932 ecbc f947 30bc
00000360: 8b46 dcbc 9b6a 8abb 8597 393c 73e5 2cbd
00000370: 1360 93bc 59ea 31bb 1c8f 6e3b 18fe 8bbc
00000380: 3838 37bb 8ef4 223c ac80 64bb 86fb 89bc
00000390: a964 553b f521 f8bb d2b3 21bb 5a08 a1bb
000003a0: 3920 383d 9e76 bcbc d5d6 d7bc 5919 71bc
000003b0: 0065 593c b7ae 4c3c 8fa9 1e3c 6462 293d
000003c0: 82e8 9fbc 4433 9e3c 5320 56b8 307b 87bb
000003d0: 748f 87bb 981e 0a3c df8e 8f3c b933 633d
000003e0: dd32 a5bc 7d70 abbb 42d5 7a3b bc6f aebc
000003f0: f599 bd3a 07eb ba3c 4adc 3abc 0714 dfbc
-0.025235431 -0.0015280814 0.012839752 -0.013698852 -0.008321263 0.01986883 0.020955605 -0.01780559
-0.021754375 0.0011171259 0.018224262 -0.0065238164 0.010179236 -0.040683772 0.0031257807 -0.012867248
0.0005017318 0.02045737 -0.028471045 0.020659234 0.0065975296 0.0040994827 -0.011450742 -0.013901295
-0.0056610364 0.017036658 -0.0055423104 0.011771975 -0.022902738 0.012897787 -0.0011968144 -0.014656031
-0.0164461 -0.009465414 -0.019565215 0.0016063055 -0.020623626 -0.016204596 -0.030130638 0.030827915
0.02466957 0.016276557 -0.002490533 -0.021835268 -0.003102668 -0.04060235 -0.029227676 0.020159768
-0.03295816 -0.007051838 -0.006896154 0.014067044 -0.019331284 -0.034593783 0.04145748 -0.009682388
-0.029376132 -0.031850584 0.006807413 0.023010798 -0.015527704 0.008427605 0.011672859 -0.009850363
-0.05033746 -0.0042357626 -0.015381887 -0.008587034 -0.028940946 0.025138 -0.004693001 0.025263349
0.022577329 0.017773649 0.021664096 0.004875751 -0.0012710232 0.007445348 -0.011958192 -0.0011796624
0.0084897885 0.0072280923 -0.020616233 0.040073615 -0.023005556 -0.013480623 0.03915835 -0.0021308246
0.013337119 0.01786548 0.014979507 0.01681369 -0.0140246935 -0.013748448 0.010762265 0.03229342
-0.018896226 -0.014802318 0.034995284 -0.032294635 0.021167345 -0.029057276 0.013331675 0.0043974025
-0.008211784 0.01310658 0.010670728 -0.008283028 -0.000966998 -0.0014322908 -0.010849983 0.009742963
-0.012827626 -0.001892502 -0.0033725374 -0.0065009473 -0.01569535 -0.0047365027 -0.014926146 -0.024317954
0.003427574 0.028008 0.025541153 -0.018103534 0.0021112838 0.008991754 -0.024675114 0.021872282
-0.019995654 -0.012125915 0.009106668 0.026930252 -0.027160699 0.017818494 0.0025226106 -0.008537554
-0.008285404 0.019216835 -0.0050335936 0.017824555 -0.01254987 0.024528505 -0.014826764 -0.040264633
-0.032325644 -0.01983181 0.008683331 -0.023055263 0.013636249 0.002354134 -0.025371743 0.0032388456
0.0009818127 0.01839162 -0.014024097 0.01439056 0.008143426 -0.014884125 0.0005248437 -0.018214079
0.0014583721 0.0075010317 -0.029484527 -0.0054903585 -0.010372144 0.015842896 -0.01897155 -0.0023857616
-0.006594518 -0.030688178 -0.022948798 0.017520417 0.0073846495 -0.03375274 -0.038620055 0.004919064
0.023845607 0.01707715 -0.007955358 -0.036926344 0.02816312 -0.012709049 -0.024407228 -0.03522634
-0.005750444 -0.011005832 -0.014865932 -0.02734828 0.011403586 -0.023447746 0.009026622 0.021014389
0.014450385 -0.0072840475 -0.020631215 -0.00017620993 -0.051672135 -0.018801354 -0.0035803185 -0.035082124
0.009797883 0.010936955 0.019911258 0.006320663 -0.013429328 -0.026993688 0.010673396 0.016241726
-0.0019852053 -0.049880665 -0.0068820273 -0.015066524 0.0011425848 -0.0077376193 -0.028832452 -0.010759347
-0.026889106 -0.004224134 0.011327629 -0.042211007 -0.017990148 -0.0027147739 0.0036401218 -0.017088935
-0.0027957093 0.009946002 -0.0034866733 -0.016843569 0.0032561219 -0.0075724074 -0.0024673832 -0.0049143257
0.044952605 -0.02300578 -0.026347557 -0.014715516 0.013268709 0.012492827 0.009683981 0.0413536
-0.019520048 0.019311555 -5.105168e-05 -0.004134558 -0.004136974 0.008430146 0.017524181 0.05546925
-0.020165855 -0.0052319155 0.0038274084 -0.021293513 0.0014465438 0.022817148 -0.01140506 -0.02723123

bert.encoder.layer.0.attention.self.value.bias f4 [50]
00000000: 0000 0000 0000 0000 0000 0000 0000 0000
00000010: 0000 0000 0000 0000 0000 0000 0000 0000
00000020: 0000 0000 0000 0000 0000 0000 0000 0000
00000030: 0000 0000 0000 0000 0000 0000 0000 0000
00000040: 0000 0000 0000 0000 0000 0000 0000 0000
00000050: 0000 0000 0000 0000 0000 0000 0000 0000
00000060: 0000 0000 0000 0000 0000 0000 0000 0000
00000070: 0000 0000 0000 0000 0000 0000 0000 0000
00000080: 0000 0000 0000 0000 0000 0000 0000 0000
00000090: 0000 0000 0000 0000 0000 0000 0000 0000
000000a0: 0000 0000 0000 0000 0000 0000 0000 0000
000000b0: 0000 0000 0000 0000 0000 0000 0000 0000
000000c0: 0000 0000 0000 0000
0.0 0.0 0.0 0.0 0.0 0.0 0.0 0.0
0.0 0.0 0.0 0.0 0.0 0.0 0.0 0.0
0.0 0.0 0.0 0.0 0.0 0.0 0.0 0.0
0.0 0.0 0.0 0.0 0.0 0.0 0.0 0.0
0.0 0.0 0.0 0.0 0.0 0.0 0.0 0.0
0.0 0.0 0.0 0.0 0.0 0.0 0.0 0.0
0.0 0.0

bert.encoder.layer.0.attention.output.dense.weight f4 [50, 50]
00000000: 4cea 0e3b 3235 94bb aac4 ce3b c64b 743c
00000010: 8e3f 0dbc 676c 06bc 5049 a93c 47af c0bc
00000020: b381 2abc 98cc c43c f8df 3c3d c099 24bd
00000030: 1707 3c3d 93db ce3c c7cb 013b 383b 49bd
00000040: 8b72 cb3b 3978 c036 36d8 afbc 38b3 ab39
00000050: 82d1 c03c 88e9 913c 59a0 2cbc cb72 84bc
00000060: 6da5 b9ba eb35 9abc 17de c33c c095 01bd
00000070: 79e9 3dbd 1d5f e93b eb14 2a3d 611d 1b3b
00000080: 177a 82bc 99aa 97bb 0e15 8cbc c6e8 02bc
00000090: bde7 e63c 817f aa3c 9ce2 14b9 6925 e43c
000000a0: 4a7f 2a3c c470 b03c bd64 733c 3b5b ffba
000000b0: 5550 b93c ae3c 8ebc b3e1 f53b 33cc 593d
000000c0: fda9 2b3c 42ae 0f3d 4d1a 1ebc 949e 8bbc
000000d0: 0a97 9d3b 0a9e 573c 25fb d4bc 1b36 06bd
000000e0: 776c 923c ba80 01bc aaf5 7b3b 6fef ffbc
000000f0: 74db 2dbc c729 9d3c c4e7 293c bc50 cbbc
00000100: 5ea0 e4bc fe47 49bb 141b b73c 10cc 04bc
00000110: fe32 eb3a ad54 96bc e406 3cbd 7261 41bc
00000120: e4be e7bc 2aea 8c3b 3fbd 09ba ddef ad3b
00000130: 9b23 8ebc aa3b 50bb e4fe 22bd 0dca 2a3c
00000140: c74d 143c e059 96bc 866f 053d a6f5 9c3b
00000150: 3b76 ec3c 3bc5 363d 1502 d63c 443d 3bb9
00000160: 9d6d 893c ddbb 75bc 6f2b 90bc 780d d43b
00000170: a837 863c f43a 01bc c932 f73b 0aea ca3c
00000180: d75d bc3b cd80 88bb 5040 fc3b 9759 15bc
00000190: f7a8 e33c 514e 04bc cc51 23bd 8698 bb3c
000001a0: 7400 3d39 b326 edbb 5544 6b3c 0b6b 71bc
000001b0: 7255 9bbb 30db 06bb 3b4a 6f3c 4e8e 473b
000001c0: 85e9 f73b ab41 7ebc 3be3 b53b d2c9 bdbc
000001d0: e65f 843c 4706 953c bb46 37bc fdcd 7539
000001e0: 1a61 00bd 0663 c43c 9929 13bc 9055 8c3c
000001f0: 660d 7ebc 10ef b63c d97b 26bc e474 d13c
00000200: 29ca 233c 0c03 1dbc 5855 1fbc b921 1c3c
00000210: 2bda a2bb 4903 9f3c 6d2d bd3b f30e 293c
00000220: de5c f43b 656a b6bb 96d8 113a 7741 efbc
00000230: da8d 043b cc90 d8bc 736f 81bb d92b 80bc
00000240: ac44 21bc 93f6 653a d292 ad3c 1756 343c
00000250: 4df5 263c 4d6c 06bb 9014 cdbb b98d df3c
00000260: 024a 583c 98c2 b7bc 62de 403c eaf3 47bb
00000270: 3a4e a2bc aae3 53bc 9da8 24bd 326a dbbc
00000280: 6a9a f8bc c9e0 8ebc efd0 10bd 805e 2abc
00000290: 221e d9bc cc33 7ebc 4f07 de3a 1f5f a0bc
000002a0: d915 4b3c a28f 133d 3e15 0a3d a458 90ba
000002b0: 92d9 743c e958 1d3b 3af6 083a 073f f53c
000002c0: c95a 0cbc 8d85 153c e214 853b 862c f8bb
000002d0: ef0d c13c fb96 0d3d d492 ecbc f98b a7bb
000002e0: 2df1 1ebc 5362 f1ba 57bc 81bc 671b 79bc
000002f0: e26c f83c 119b 9bbb 406d 0ebd b5c7 9e3c
00000300: 12e0 d2bc 9c81 363b dca5 3dbd 970a 25bd
00000310: 9d1a 683c e4cb 07bc 6a0e 36bb c919 073c
00000320: 7f8a 80bb 6aea 61bc 246c 803d f4c6 77bc
00000330: a757 4c3b 67a2 ea3c cc0e 633c d6cf 80bb
00000340: 17af 363c 6326 9db9 46a8 c1bc 3929 8fbc
00000350: ddde e3bc a995 f0bb 30eb f237 eddc 2f3d
00000360: 2b60 343b 95b0 d83b cd31 113d cbcf e83c
00000370: 425d 363c 1024 c53c 181d ecbc fee0 863b
00000380: 33f1 48bc dcc0 aa3c 1bca 83bb ca79 633c
00000390: db16 f6b8 1896 a33c d9a1 01bc 78ac 0a3b
000003a0: 56e8 033d cf71 74bc e91d a8bb f4c9 d13b
000003b0: 523c 813c d8cf fdbc 1c1e 2ebc 6499 303c
000003c0: 0916 283c 467c ef3c d09f f7bc 99aa 1fbc
000003d0: 87dc 4f3b ce38 f73b 3ae1 1aba 7b02 203d
000003e0: 8111 4c3c 9d83 d0bb 427d dc3b 0641 5bbc
000003f0: 1740 08bb 1075 22bd d801 b03b 8286 16bd
0.0021807132 -0.004522943 0.0063100653 0.014910644 -0.00862111 -0.008204556 0.020664841 -0.023521079
-0.010406899 0.02402334 0.04611203 -0.04018569 0.0459052 0.025251186 0.0019805299 -0.04912874
0.006208723 5.7360417e-06 -0.021465402 0.0003274919 0.023537401 0.017811552 -0.010536277 -0.016168019
-0.0014163681 -0.018824538 0.023909612 -0.031636953 -0.046365235 0.007121934 0.041523855 0.0023668634
-0.015927358 -0.004628491 -0.017099883 -0.007990068 0.028186673 0.020812752 -0.00014198798 0.02784987
0.010406325 0.021538146 0.014855561 -0.0019482145 0.022621313 -0.017362919 0.007503712 0.053173255
0.01047754 0.035078295 -0.009649825 -0.01704339 0.004809265 0.013160238 -0.025998661 -0.032766443
0.017873986 -0.007904226 0.0038445988 -0.0312421 -0.010611404 0.01918496 0.010370199 -0.02481877
-0.0279085 -0.0030713077 0.022351779 -0.008105293 0.0017944274 -0.018350923 -0.04590501 -0.011803018
-0.028289266 0.0043003755 -0.0005254335 0.005308135 -0.017350962 -0.0031773844 -0.039793864 0.010424149
0.009051747 -0.018353403 0.03257706 0.0047900258 0.02886497 0.044621687 0.02612404 -0.00017856533
0.0167759 -0.014998403 -0.017598836 0.006471332 0.01638396 -0.007887591 0.007543896 0.024769802
0.0057484913 -0.004165745 0.0076980963 -0.009115598 0.02779053 -0.008075313 -0.03987293 0.022899877
0.00018024613 -0.0072372793 0.014359553 -0.014734994 -0.0047404105 -0.0020577423 0.0146051 0.003044981
0.0075656795 -0.015518586 0.0055507696 -0.023167524 0.01615901 0.01819147 -0.011186297 0.00023441757
-0.031342603 0.023973 -0.008982086 0.017130643 -0.015506124 0.02233079 -0.0101613635 0.025568433
0.009996929 -0.009583246 -0.009724937 0.0095295245 -0.0049698553 0.019410746 0.0057732374 0.010318506
0.0074573597 -0.0055668824 0.0005563585 -0.02920602 0.0020226152 -0.026436232 -0.0039500534 -0.015645908
-0.009843033 0.0008772399 0.021188173 0.011006854 0.01019032 -0.002051133 -0.0062585548 0.027289258
0.013201239 -0.022431657 0.01177177 -0.0030510374 -0.019812692 -0.012932697 -0.040199865 -0.026784036
-0.030347068 -0.01744117 -0.035355505 -0.010398507 -0.026503626 -0.015515279 0.0016939434 -0.019576607
0.012395346 0.03602565 0.033711664 -0.0011012745 0.014944451 0.0024009293 0.0005224679 0.02993728
-0.008566567 0.009126079 0.0040613273 -0.007573667 0.023566214 0.034567814 -0.028878607 -0.0051131216
-0.0097010555 -0.0018416144 -0.015836878 -0.015204287 0.030325357 -0.00474871 -0.034772158 0.019382337
-0.02574161 0.002784825 -0.046300754 -0.040293302 0.014166501 -0.008288357 -0.0027779588 0.008245894
-0.00392276 -0.013788799 0.06270626 -0.015123118 0.0031180175 0.028641893 0.013858508 -0.003931026
0.011150143 -0.00029973974 -0.02363981 -0.017475711 -0.02781623 -0.0073420596 2.8958166e-05 0.0429353
0.002752314 0.006612847 0.035447884 0.028419396 0.011130633 0.024065048 -0.028822467 0.0041161766
-0.012264538 0.020843916 -0.0040218956 0.013884017 -0.00011734451 0.019969031 -0.007912123 0.0021159928
0.032203995 -0.014919712 -0.0051305187 0.0064022485 0.015775833 -0.030982897 -0.010627296 0.010778759
0.01025916 0.029234063 -0.030227572 -0.0097452635 0.0031717138 0.0075446134 -0.0005908195 0.039064866
0.012455345 -0.006363346 0.006728799 -0.013382202 -0.0020790154 -0.03966242 0.0053713135 -0.03674937

bert.encoder.layer.0.attention.output.dense.bias f4 [50]
00000000: 0000 0000 0000 0000 0000 0000 0000 0000
00000010: 0000 0000 0000 0000 0000 0000 0000 0000
00000020: 0000 0000 0000 0000 0000 0000 0000 0000
00000030: 0000 0000 0000 0000 0000 0000 0000 0000
00000040: 0000 0000 0000 0000 0000 0000 0000 0000
00000050: 0000 0000 0000 0000 0000 0000 0000 0000
00000060: 0000 0000 0000 0000 0000 0000 0000 0000
00000070: 0000 0000 0000 0000 0000 0000 0000 0000
00000080: 0000 0000 0000 0000 0000 0000 0000 0000
00000090: 0000 0000 0000 0000 0000 0000 0000 0000
000000a0: 0000 0000 0000 0000 0000 0000 0000 0000
000000b0: 0000 0000 0000 0000 0000 0000 0000 0000
000000c0: 0000 0000 0000 0000
0.0 0.0 0.0 0.0 0.0 0.0 0.0 0.0
0.0 0.0 0.0 0.0 0.0 0.0 0.0 0.0
0.0 0.0 0.0 0.0 0.0 0.0 0.0 0.0
0.0 0.0 0.0 0.0 0.0 0.0 0.0 0.0
0.0 0.0 0.0 0.0 0.0 0.0 0.0 0.0
0.0 0.0 0.0 0.0 0.0 0.0 0.0 0.0
0.0 0.0

bert.encoder.layer.0.attention.output.LayerNorm.weight f4 [50]
00000000: 0000 803f 0000 803f 0000 803f 0000 803f
00000010: 0000 803f 0000 803f 0000 803f 0000 803f
00000020: 0000 803f 0000 803f 0000 803f 0000 803f
00000030: 0000 803f 0000 803f 0000 803f 0000 803f
00000040: 0000 803f 0000 803f 0000 803f 0000 803f
00000050: 0000 803f 0000 803f 0000 803f 0000 803f
00000060: 0000 803f 0000 803f 0000 803f 0000 803f
00000070: 0000 803f 0000 803f 0000 803f 0000 803f
00000080: 0000 803f 0000 803f 0000 803f 0000 803f
00000090: 0000 803f 0000 803f 0000 803f 0000 803f
000000a0: 0000 803f 0000 803f 0000 803f 0000 803f
000000b0: 0000 803f 0000 803f 0000 803f 0000 803f
000000c0: 0000 803f 0000 803f
1.0 1.0 1.0 1.0 1.0 1.0 1.0 1.0
1.0 1.0 1.0 1.0 1.0 1.0 1.0 1.0
1.0 1.0 1.0 1.0 1.0 1.0 1.0 1.0
1.0 1.0 1.0 1.0 1.0 1.0 1.0 1.0
1.0 1.0 1.0 1.0 1.0 1.0 1.0 1.0
1.0 1.0 1.0 1.0 1.0 1.0 1.0 1.0
1.0 1.0

bert.encoder.layer.0.attention.output.LayerNorm.bias f4 [50]
00000000: 0000 0000 0000 0000 0000 0000 0000 0000
00000010: 0000 0000 0000 0000 0000 0000 0000 0000
00000020: 0000 0000 0000 0000 0000 0000 0000 0000
00000030: 0000 0000 0000 0000 0000 0000 0000 0000
00000040: 0000 0000 0000 0000 0000 0000 0000 0000
00000050: 0000 0000 0000 0000 0000 0000 0000 0000
00000060: 0000 0000 0000 0000 0000 0000 0000 0000
00000070: 0000 0000 0000 0000 0000 0000 0000 0000
00000080: 0000 0000 0000 0000 0000 0000 0000 0000
00000090: 0000 0000 0000 0000 0000 0000 0000 0000
000000a0: 0000 0000 0000 0000 0000 0000 0000 0000
000000b0: 0000 0000 0000 0000 0000 0000 0000 0000
000000c0: 0000 0000 0000 0000
0.0 0.0 0.0 0.0 0.0 0.0 0.0 0.0
0.0 0.0 0.0 0.0 0.0 0.0 0.0 0.0
0.0 0.0 0.0 0.0 0.0 0.0 0.0 0.0
0.0 0.0 0.0 0.0 0.0 0.0 0.0 0.0
0.0 0.0 0.0 0.0 0.0 0.0 0.0 0.0
0.0 0.0 0.0 0.0 0.0 0.0 0.0 0.0
0.0 0.0
